NN/sinc/trained_model_sinc.pth (torch, 16850 bytes, 9 tensors)

fc1.weight f4 [32, 1]
000000 af db 68 be 8b 19 76 3d 49 2d 8d be 46 11 a0 3e
       -0.22740053 0.060082953 -0.27573612 0.3126318
000010 44 d8 c1 bf 1b 33 67 3f 93 6b 67 bf c7 6f 2a bf
       -1.5144124 0.90312356 -0.9039852 -0.6657681
000020 04 16 a3 bf bf 2d 9e 3e 94 45 4c be 5b 89 ae 3e
       -1.2741094 0.30894276 -0.19948417 0.3408917
000030 fe 5f 95 bf 2e 26 27 bf 0a fa a1 be 41 13 68 be
       -1.166992 -0.6529263 -0.31636077 -0.22663595
000040 09 b7 e4 bd 78 17 5a 3f 41 9b 8c be ac 5a e0 3e
       -0.11167724 0.8519206 -0.274622 0.43819177
000050 63 14 0f 3f 10 55 25 3e 31 17 bd 3e 6f a9 90 3e
       0.5589048 0.1614573 0.36931756 0.28254268
000060 db 08 07 bf 0d c1 a9 3e 62 b0 90 be c1 0e 89 3e
       -0.5274789 0.331551 -0.2825957 0.2676907
000070 7e 1b 41 3f 46 53 69 be 93 09 88 3e c5 57 28 3f
       0.75432575 -0.22785673 0.26569805 0.65758926

fc1.bias f4 [32]
000000 30 ea a7 3e 15 f0 50 3f 61 31 91 3e 6c c3 0e 3f
       0.32795858 0.81616336 0.28357986 0.5576694
000010 d7 66 90 bf 6e 91 10 3f bd 4a 40 bf 6e e9 dd be
       -1.1281384 0.5647191 -0.7511404 -0.43342155
000020 4f 9c 5e bf 60 e5 4f bf ff 0e 6b bf 09 ce c2 3f
       -0.8695726 -0.81209373 -0.9181976 1.5219127
000030 a3 d7 34 bf d2 9d 1b bf b7 4a 20 bf d4 92 83 be
       -0.70641536 -0.6078769 -0.62614006 -0.25697958
000040 ba 48 d6 3e 18 b1 30 3f d9 49 b3 be 5d 86 56 40
       0.4185236 0.69020224 -0.3501728 3.351951
000050 cf d1 6c 3e 45 e8 1e 3f 06 bf 87 3f c4 30 3e bf
       0.2312691 0.62073165 1.0605171 -0.7429316
000060 13 9e 5e bf 8d d8 05 40 ad 8e fa bf 65 cb dc be
       -0.8695995 2.0913422 -1.9574791 -0.43123928
000070 e7 22 92 40 ba fa c4 be f9 b0 0f bf b2 5e e6 3f
       4.5667605 -0.3847254 -0.56129414 1.7997649

fc2.weight f4 [32, 32]
000000 8c bd 30 3e 32 8b b8 3b 81 c6 0c 3e f7 89 1d be
       0.17259806 0.0056318277 0.13747598 -0.1538466
000010 c9 82 15 3e dc 58 34 be da 6d a3 3e 1f 80 96 3e
       0.14600672 -0.17612022 0.31919748 0.29394624
000020 2e 3d 24 3e 38 0a bb be 2f 15 be 3d e9 05 a4 bc
       0.16038963 -0.36531234 0.09281384 -0.02002235
000030 37 7e 9a 3e 21 82 8c 3d 71 49 d8 3d 2f f1 6f 3e
       0.3017442 0.068607576 0.10560883 0.23431848
000040 18 00 b4 3c 8d 15 48 be a1 c6 07 3e 00 d9 24 3e
       0.021972701 -0.19539471 0.13259365 0.16098404
000050 11 fb 98 be 85 4c 1c be d5 43 f8 3b 56 3c 07 be
       -0.29879048 -0.15263565 0.0075764456 -0.1320661
000060 f2 ee 31 3e f3 e0 29 3e 5a 14 4b be cd f7 02 be
       0.17376307 0.16589718 -0.19831982 -0.12789841
000070 c0 84 6e 3e d8 fd 5f 3e ae 1e 91 be 81 15 f8 bb
       0.23292828 0.21874177 -0.2834372 -0.007570923
000080 07 b6 d9 3d ae 88 80 3e 7d 73 a7 3d ee 78 15 3e
       0.10630422 0.25104278 0.081763245 0.14596912
000090 a6 9a 56 3e 60 33 10 be 81 f6 1a bd 39 b8 d4 bd
       0.20957431 -0.14082098 -0.03783274 -0.103867
0000a0 27 94 d7 3c ca a7 f6 bc b6 ba 46 be 6f 0e 2c 3f
       0.026315762 -0.030109305 -0.19407162 0.67209524
0000b0 6c d4 f6 3d 08 05 41 bd d3 f5 e1 bd ae 4f 5d be
       0.12052235 -0.04712394 -0.110332154 -0.21612427
0000c0 5d 4b f5 3c 2e 3f 35 3d c6 53 48 be 9e 0d e4 3e
       0.029943163 0.044249706 -0.19563207 0.4454164
0000d0 e5 e3 b1 bd 55 ca 7c 3e 98 22 c1 3e 05 a2 0f 3e
       -0.086860456 0.24686559 0.37721705 0.1402665
0000e0 a4 7d 8d be 9a f7 b2 3e 57 5e ff bc 3e 55 29 bd
       -0.2763492 0.3495453 -0.031172914 -0.04134106
0000f0 e7 2b 37 3f 6e f8 62 be a9 48 b0 3d ba 81 ec 3e
       0.71551365 -0.22165081 0.08607609 0.46192724
000100 e8 3f 30 be 9f e3 10 3e e1 00 70 be 99 58 fe 3d
       -0.17211878 0.1414933 -0.23437835 0.124192424
000110 58 e4 d5 3d 41 06 5d bd e6 6c 71 bd da 47 28 be
       0.10443944 -0.053961042 -0.058941744 -0.16433659
000120 2d 76 c4 3d 87 b8 8d 3e 25 63 2a bd 71 40 1c bc
       0.09592853 0.27679846 -0.041598458 -0.009536848
000130 4f 14 28 3c 37 4d c7 bd 44 ab 20 bd 24 0f e3 bc
       0.010258748 -0.097315244 -0.03922583 -0.02771718
000140 ea 2e d0 bc d4 13 2c bc 65 47 48 be 0d 93 a9 bd
       -0.025412995 -0.010502774 -0.19558485 -0.08280001
000150 81 b6 c6 3c e1 ee 14 3c 86 ac c2 bd de e1 58 3e
       0.024256947 0.009090156 -0.095055625 0.21179911
000160 3f 67 a9 bd 3f 01 94 3d f9 16 cb 3d 29 74 b0 3e
       -0.08271646 0.072268 0.09916491 0.34463623
000170 d8 9d ed bd 88 5b ad bd a6 e9 e9 3d f0 9f 26 3e
       -0.11602372 -0.08464724 0.11421518 0.16271949
000180 15 80 c2 bd f7 13 43 be bf 0f 49 be 8a 3b 6e 3e
       -0.09497086 -0.19050585 -0.19634913 0.232649
000190 a7 c0 cd 3d 6f e6 56 3e f4 9e 69 bd 5e dc 19 3d
       0.10046511 0.20986341 -0.057036355 0.037563674
0001a0 25 eb 1e 3d b0 2e 77 3e 07 3e 77 3c f6 f8 ea bd
       0.03879847 0.24138904 0.015090472 -0.11473267
0001b0 8f ef 88 bd 15 90 97 bd 18 b5 4d be b0 fb 2b be
       -0.06686317 -0.07400528 -0.20088613 -0.1679523
0001c0 dc d8 23 be f3 53 10 3d cb 58 ea 3c cf ba 3b 3e
       -0.16000694 0.03523631 0.028606793 0.1833298
0001d0 e8 04 c3 3d 2c ef d0 3c ca 70 48 3e e3 be 6e 3b
       0.0952242 0.025504671 0.19574276 0.0036429695
0001e0 b0 2d 55 be cf da bc bd 6c 40 f6 bd 62 0c 58 3e
       -0.2081821 -0.09221422 -0.12024006 0.21098474
0001f0 63 9a a4 3e 9e 4d 8b be 2e 03 8d 3b 90 2a 03 bd
       0.32149038 -0.27207655 0.0043033576 -0.032023013
000200 24 92 24 be c5 04 d0 3e 0d 0f a1 be 03 ad 48 3d
       -0.16071373 0.4062864 -0.31456795 0.04899312
000210 cf aa 36 3d 97 8b a6 3b 82 35 04 3d ae 34 96 bd
       0.04459649 0.0050825584 0.03227759 -0.073342666
000220 ed 09 b9 bd a9 ef 87 3e 59 b9 9a bd 45 f7 b7 3b
       -0.09035096 0.26550034 -0.075548835 0.0056141936
000230 e8 ae 32 be ac 99 bc bd 1c 36 dc bd 95 15 30 be
       -0.17449534 -0.09208998 -0.10752508 -0.17195733
000240 4e d0 9a bd 37 02 4c 3e 9f 52 56 be ce 17 53 ba
       -0.07559262 0.1992272 -0.20929955 -0.00080525584
000250 d2 ba 4f 3e d7 4c f3 3d 7a 43 e4 3d e6 69 5d 3e
       0.2028611 0.118798904 0.11145683 0.21622428
000260 3e eb 25 bd 28 50 bd bd 62 56 8c bc 41 1f 78 3e
       -0.040507548 -0.09243804 -0.017131034 0.24230672
000270 2f b5 88 be c7 31 67 be 51 88 92 3e 76 7e 06 3d
       -0.26700732 -0.22577582 0.28619626 0.032835446
000280 3f 6f 95 3e ae 07 79 3e 53 3c d2 3d d7 38 aa be
       0.29186437 0.24319336 0.10265412 -0.3324649
000290 48 fd 08 be c8 da 34 bd e4 f2 b5 3d 34 45 b4 3d
       -0.13377869 -0.04415396 0.08884218 0.08802262
0002a0 56 42 39 be dc 33 3f be 00 0a c0 3d 20 d7 9a be
       -0.18091711 -0.18672127 0.09376907 -0.30242252
0002b0 48 bf 3f 3b 69 8f f3 3d a6 3d d6 3d fc de 67 3e
       0.00292583 0.11892588 0.10460977 0.22643656
0002c0 7f 1e b0 3c cf c2 31 be 0a c0 06 3e 1d fc 4e be
       0.021498917 -0.1735947 0.13159195 -0.20213361
0002d0 76 3c 59 bd e0 81 82 3d 5f a3 7c be 96 e1 90 be
       -0.053036176 0.06372428 -0.24671696 -0.28297108
0002e0 25 9b d7 3e 59 10 10 be 42 a8 2f 3e cb bd 92 be
       0.42110553 -0.14068736 0.17154029 -0.28660426
0002f0 36 46 92 bd b3 14 a4 3d 9f 64 61 be b1 8b 9a be
       -0.07142298 0.080117606 -0.2201104 -0.301847
000300 eb 0b 01 3a a7 7f 9d be 32 d6 30 3e e8 71 f5 3d
       0.00049227354 -0.30761454 0.17269209 0.119846165
000310 0c d0 41 be 77 2a c0 3d d1 be 13 be 3e e9 64 3d
       -0.1892702 0.093830995 -0.1442826 0.0558865
000320 3c c9 a1 bb 41 7b 15 3e f9 9a af 3e ac 3e c0 be
       -0.004937319 0.14597799 0.34297922 -0.37547815
000330 11 9f ff bb a9 de 9e bd 0f 85 96 3c 8d 69 76 3e
       -0.0078009446 -0.07757313 0.018373994 0.24063702
000340 4c fa 48 3e 78 89 ce 3c 03 d4 de 3d ce 0c bb bf
       0.1962673 0.025212035 0.10880282 -1.4613283
000350 82 c9 0a 3d 8c 9a 88 be 10 23 1f bf 46 e0 92 bd
       0.03388358 -0.2668041 -0.62162876 -0.07171683
000360 65 bc f3 3d de 9d 93 bf 07 a9 2b 3f 0e 27 bb bc
       0.11901168 -1.1532552 0.6705479 -0.022845771
000370 96 ba b6 bf d9 19 3b 3e 69 86 ae 3d 89 37 58 3b
       -1.4275692 0.18271579 0.085217305 0.0032992086
000380 a7 c4 88 bd 04 06 74 be 42 0c 2a 3e b0 88 a3 be
       -0.066781335 -0.2383042 0.16606238 -0.31940222
000390 54 ba 63 3f f5 4d d7 be 71 ec 15 3f 59 1f df 3e
       0.8895619 -0.42051664 0.58563906 0.43578604
0003a0 70 c2 13 3f 5a 60 f5 3c 5a 92 96 3e 46 f5 3d be
       0.57718563 0.02995317 0.29408532 -0.18550596
0003b0 97 bd 06 3f ef e6 f9 3e 64 83 cf 3e 2b db 88 3e
       0.5263304 0.48809 0.4052993 0.26729712
0003c0 1d 66 a2 bc ff 5b 04 bf 01 7f 6c 3e 61 15 73 be
       -0.019824082 -0.51702875 0.23095323 -0.23738624
0003d0 b3 2c a7 be 80 c4 54 be 75 ad 60 be 1c 02 b5 3d
       -0.3265129 -0.20778084 -0.21941169 0.08838293
0003e0 b5 d7 b1 3e 33 bd 34 bc b0 4e db 3d 73 00 e6 3c
       0.34734884 -0.011031437 0.10708368 0.028076386
0003f0 1c 1e 85 be 72 1e 21 3e 2c 19 8c 3d ad 89 a0 be
       -0.25999534 0.1573427 0.06840739 -0.31355038

fc2.bias f4 [32]
000000 06 51 28 3e 91 66 bc 3d 80 24 c4 be 1b f2 31 be
       0.16437158 0.091992505 -0.38309097 -0.17377512
000010 d4 36 5b be 96 a5 87 3e 13 da 67 3c 97 4a 0a be
       -0.21407634 0.2649352 0.014151114 -0.13505016
000020 33 83 8e 3d fe 5e ab bd 78 38 2e bd c5 06 3c 3d
       0.06958618 -0.08367728 -0.04253432 0.045904893
000030 46 77 07 3e 17 a6 1a 3f 12 c5 55 be 3c 80 aa 3e
       0.13229093 0.60409683 -0.20875958 0.3330096
000040 0f 90 b1 3d 14 84 17 be 4d f5 b3 bd f8 46 e2 3e
       0.08670055 -0.14796478 -0.08787022 0.4419477
000050 0c 98 8b 3e 5a fc 9d 3d 86 c9 8a bd 2b 5c 28 3e
       0.2726444 0.07714148 -0.06776719 0.1644141
000060 78 8e 98 3e cd a7 86 3e f2 6c 25 3e cd 73 21 bd
       0.29796195 0.26299897 0.1615484 -0.039417077
000070 82 0f 92 bd ee 12 ed 3e 32 05 99 be 50 bd 1a be
       -0.07131864 0.46303505 -0.29886776 -0.1511128

fc3.weight f4 [32, 32]
000000 0e f1 7f be 16 32 5f 3e 26 1d 4a 3e 2f 9f 96 be
       -0.24994299 0.2179645 0.19737682 -0.29418322
000010 c7 0e 92 3e 02 39 93 3e b3 d8 7b 3e 55 9d 31 be
       0.285269 0.2875443 0.24594383 -0.17345174
000020 72 e1 56 be 1e 76 98 bd 98 97 4e be 91 2c 37 3e
       -0.20984438 -0.07444404 -0.20175016 0.17888094
000030 6c be 6f 3e 6e c4 b4 be bf 9f 8e 3e 76 90 5b be
       0.23412484 -0.35306114 0.27856252 -0.21441826
000040 ad 1e a2 bd 46 92 31 be 88 3f fc bd a3 d7 89 be
       -0.07916007 -0.17340955 -0.12316805 -0.2692233
000050 4c 18 5c 3d 18 e0 3f bd ce 29 41 be cd 78 4c be
       0.05373411 -0.04684457 -0.18863603 -0.19967957
000060 da 92 f0 bd 0c e3 31 bc 3d 28 5b bd 25 0c ec bd
       -0.1174676 -0.010857355 -0.05350517 -0.11525754
000070 4f 17 95 3e 11 b1 aa be 0b fb d2 3d b4 f7 65 3c
       0.29119346 -0.33338216 0.10301789 0.014036108
000080 5b 6a 1c bd 4a 44 68 bd 33 d5 02 3e 43 d7 3e be
       -0.038187366 -0.05670575 0.12776642 -0.18636803
000090 88 3c 0a 3e 77 ec 1c 3e a2 a4 0c 3e 5d d6 57 be
       0.13499653 0.15324579 0.13734677 -0.21077867
0000a0 26 ae 0d be 9a 1a 88 bd 60 0b 8a bd 2c 7a 0a 3d
       -0.13835964 -0.06645699 -0.06740451 0.03380792
0000b0 c0 ad 28 3e 36 e3 88 bd 0b ee 29 3e 44 03 58 bd
       0.1647253 -0.06683962 0.16594712 -0.05273749
0000c0 4b d0 12 3d 49 6f 94 bc 60 c4 79 be af 95 79 bd
       0.035843175 -0.018119471 -0.24391317 -0.060933765
0000d0 c9 67 6b bd 57 c3 1c 3d ec dc 14 be b8 6d 9a 3d
       -0.057472024 0.038272228 -0.145374 0.075404584
0000e0 88 f5 e6 bd 89 9e ce bc 4f 13 12 bd a8 4a 2e 3d
       -0.112773 -0.02522208 -0.035662945 0.042551666
0000f0 4d fe 85 3d 39 df 04 3e 23 03 21 bc 03 3a 2e 3c
       0.06542645 0.12975778 -0.009827408 0.010633948
000100 eb ee 2d be b5 18 91 3e b2 ff 01 3e 3b e2 23 3e
       -0.16985671 0.28339162 0.12695196 0.16004269
000110 93 54 a1 3e c3 a8 21 be 7e 76 ec bd 77 c5 3c 3d
       0.31509838 -0.15787034 -0.11546038 0.046086755
000120 72 ef 75 bb ac 74 ca be 69 9f bf 3d 26 ee f8 3d
       -0.0037526754 -0.3954214 0.09356577 0.12154798
000130 7b 58 b1 3d d5 8e 4b bd 21 b0 bc bd ae ec 10 be
       0.086594544 -0.049696762 -0.092132814 -0.14152786
000140 52 88 41 bf 5f 9c e6 bd 0a f9 d6 bd a4 86 30 be
       -0.75598633 -0.11260294 -0.10496719 -0.17238861
000150 c4 f9 8f 3e 1a 05 a8 3d 39 d9 44 bc 98 b7 9b 3d
       0.28120244 0.08204098 -0.012014681 0.07603377
000160 47 6c 29 be 5b 52 03 be 19 95 c1 3d f0 0b 74 be
       -0.16545211 -0.12824385 0.09452266 -0.23832679
000170 a6 8b 36 3e fb 08 c4 bd a1 4d 1f 3e 6b 97 fa bd
       0.17826709 -0.095720254 0.15556957 -0.12235912
000180 a8 df c5 3c 0e c8 9e bb 09 24 cb bd ca 17 10 bd
       0.0241545 -0.0048456257 -0.099189825 -0.035178937
000190 ae 04 07 be 13 15 85 bd 74 a4 90 be a6 8e 41 3e
       -0.13185379 -0.0649816 -0.28250468 0.18902072
0001a0 f3 88 29 3e 5e 86 3f 3d fa b5 17 be 4a ff 6c bd
       0.16556148 0.046759002 -0.14815512 -0.05786065
0001b0 9b 3a 7d be 80 9a b2 3e 95 71 f5 bc 85 08 b5 3d
       -0.24729387 0.348835 -0.029961387 0.088395156
0001c0 3d 58 b9 3d c0 dd 2e 3d fd 47 07 bd ab 1b 78 3e
       0.09050033 0.042691946 -0.033027638 0.24229304
0001d0 c3 99 3e 3e 3e 37 9c 3e 7d f6 cf 3d e8 e9 70 3d
       0.18613343 0.30510896 0.10154436 0.05881682
0001e0 27 33 77 3d dc 51 2f be 30 8b 78 be f1 88 8d 3e
       0.060351517 -0.1712107 -0.24271846 0.2764354
0001f0 c2 8a 4b be 1a 32 1d 3e 77 54 8f be d5 cb 0b be
       -0.1987715 0.15351143 -0.2799413 -0.13651974
000200 62 9d 8a bc d9 b1 f6 be a0 84 aa be b7 43 54 3e
       -0.01692075 -0.48182562 -0.3330431 0.20728956
000210 db a8 60 be bd bf 47 3c 67 4d 73 bd 77 c5 ba be
       -0.21939413 0.01219171 -0.05939999 -0.3647878
000220 87 69 54 3e 17 3e 12 3e 8c f3 12 3e 7f 39 6d 3e
       0.2074338 0.14281498 0.14350718 0.23166464
000230 03 63 9b be e8 29 5c 3e f9 0f cb 3d b8 59 50 3d
       -0.30348977 0.21500361 0.09915156 0.050866812
000240 e2 d5 3e 3f d3 7b 81 3e 99 60 dd 3b c0 37 eb 3e
       0.7454511 0.25289783 0.0067559 0.4594097
000250 91 08 0b bd 22 e4 3f be 66 bb 6d be c9 66 b4 bd
       -0.033943716 -0.1873937 -0.23216018 -0.08808667
000260 e3 df 63 3d b7 0d a7 3d be 88 07 bb 76 e0 7a 3e
       0.055633437 0.08156913 -0.002068087 0.24499688
000270 10 b9 7b be 81 5c 96 3e b7 51 25 bf 05 ef 3c 3e
       -0.24582314 0.2936745 -0.6457781 0.18450554
000280 19 1f 4d be dc 3c ff 3c fd 95 9a 3d c5 8b 02 be
       -0.20031394 0.03115695 0.07548139 -0.1274863
000290 53 41 64 3e 70 ec 74 3d aa 3f 25 be 1a 70 56 be
       0.22290544 0.059795797 -0.16137567 -0.20941201
0002a0 ba a3 51 bd 5c 90 b0 be 39 e7 a2 3e 87 49 ec bc
       -0.051181532 -0.34485137 0.31817034 -0.028843654
0002b0 42 91 90 bd 2f 58 de 3d 98 93 90 bd 01 08 0c 3c
       -0.07058956 0.108566634 -0.07059401 0.00854683
0002c0 17 d5 5f be de ec e6 3d 0c 70 21 be 8d cb 99 bd
       -0.21858631 0.112756476 -0.15765399 -0.07509527
0002d0 7f 3a bd bd 19 4a 1c bd 94 fb df 3d a4 b6 dc 3c
       -0.09239673 -0.038156603 0.109366566 0.026942559
0002e0 2d fc 43 be 6f 78 52 bc 89 0d e5 3d e2 e8 0e 3e
       -0.19139166 -0.012846096 0.11184222 0.13956025
0002f0 6b 13 91 3d 4a 16 32 3e a0 e2 21 be 5e 79 62 3d
       0.07083782 0.17391315 -0.15809107 0.055291526
000300 d9 27 8e be 0f ba de bc 74 bb 35 3e cf bb 49 be
       -0.27764776 -0.027188329 0.17747289 -0.1970055
000310 25 ec 4c 3e 8d f6 c6 3d c0 49 b9 3e 87 46 0f bd
       0.20011957 0.097149946 0.3618908 -0.03497937
000320 ca 25 9a 3c 0f 18 62 3d b6 25 62 3e 57 6b f3 bd
       0.018816847 0.055198725 0.22084698 -0.11885708
000330 1c f1 37 bc 4e e2 97 be 42 f7 4b 3e 38 7e 71 bd
       -0.011226919 -0.29664844 0.1991854 -0.058958262
000340 db 72 d1 bd c4 97 3b be db 1c 5c bd 54 a6 55 bd
       -0.10226985 -0.18319613 -0.053738456 -0.052160576
000350 b1 12 20 be 01 84 78 be 28 0e db 3c 7f 75 09 be
       -0.1563213 -0.24269105 0.026740149 -0.13423727
000360 a4 61 1b be 02 36 23 bd f7 38 53 3e 7b 98 81 be
       -0.15173966 -0.039846428 0.20627199 -0.25311646
000370 d7 7b e3 3d 89 41 0e be 8a 99 82 3e 77 8b 03 bd
       0.11107605 -0.13892187 0.25507766 -0.032115426
000380 a4 12 22 bd 70 c7 89 3c 1c 00 0d 3d d5 6e 8d bd
       -0.03956856 0.016818732 0.034423932 -0.06905905
000390 b1 a2 b7 3c 1e 22 44 3e c4 38 2e be 43 5b 45 3e
       0.022416444 0.1915364 -0.17013842 0.19273095
0003a0 22 ad 14 3e 97 4b dc bc b0 60 56 3e f6 5e e0 bb
       0.1451917 -0.026891513 0.20935321 -0.0068472577
0003b0 04 d9 93 bd 18 09 fe 3d db 79 70 3d 83 c1 a0 3d
       -0.07219127 0.12404078 0.05870996 0.078494094
0003c0 fd 20 55 be 26 c5 84 bd 5b 6c 43 be f9 c4 e8 3c
       -0.20813365 -0.064829156 -0.19084303 0.028414236
0003d0 cf 3b 56 be 86 99 99 bd 48 96 82 bc 1c 17 5e be
       -0.20921253 -0.074999854 -0.0159408 -0.21688503
0003e0 40 15 81 bd 81 93 92 3b 53 fa 7f 3d 20 b8 1a 3d
       -0.06302881 0.0044731502 0.062494587 0.03777325
0003f0 d8 1c 09 3e 5e b7 ff 3d ae 05 8d bd 87 fb ab 3c
       0.1338991 0.124861464 -0.06885849 0.020993961

fc3.bias f4 [32]
000000 c2 b8 45 be e8 f6 22 be 5a 57 6c be 26 32 f2 3e
       -0.19308761 -0.159145 -0.23080197 0.47303885
000010 28 77 f6 3e 99 c2 17 3e 6f 02 d1 be a2 14 c8 bd
       0.48137784 0.14820327 -0.4082217 -0.097695604
000020 59 33 28 3e 96 e0 96 be 0f 0c 94 be 1c da a2 3d
       0.16425838 -0.2946822 -0.2891545 0.07951757
000030 45 08 24 3e 2d 94 ce bd cf 11 5c be 92 c2 e5 bd
       0.1601878 -0.10086856 -0.21491168 -0.11218752
000040 69 94 22 be e0 f2 56 be 75 bf 68 be 66 17 1d be
       -0.15876926 -0.20991087 -0.22729285 -0.15340957
000050 62 3b 7f be 6d 12 f7 3d 9f d8 4a be 5f 14 40 3b
       -0.24924996 0.12064061 -0.19809197 0.0029309017
000060 9a a2 44 3d cc 0f 90 bd 9a cb 54 be ef 96 b2 3e
       0.04800663 -0.07034263 -0.20780793 0.34880778
000070 9c b1 49 be 94 31 6a 3e 2c d4 65 bd 9b 3e 22 be
       -0.19696659 0.22870475 -0.056110546 -0.15844195

fc4.weight f4 [32, 32]
000000 fb 77 8a bd 8a 3a 1f be 24 b0 e5 bc fc 53 08 3e
       -0.06761166 -0.15549675 -0.028038092 0.13313287
000010 82 85 33 be 7f 84 a9 bd 57 09 bd 3c 2d 21 f3 bd
       -0.17531398 -0.08277225 0.023075743 -0.11871562
000020 c2 8c 1c be 95 85 2e 3e ea a0 57 bb a2 6a ac 3c
       -0.1528807 0.17043145 -0.0032902309 0.02104694
000030 79 9b 4d ba ab e6 b1 3c 77 ed 6c bd 5b d2 0b ba
       -0.00078432966 0.021716436 -0.05784365 -0.00053337746
000040 1e 19 5f 3e 96 25 02 3d 0b 93 8e bd c2 c5 86 bd
       0.21786925 0.031774126 -0.0696164 -0.06580688
000050 09 18 1f bd 87 06 18 3e 9c 41 69 be 74 59 a9 bd
       -0.03884128 0.1484624 -0.22778934 -0.08269015
000060 09 23 58 bd da 03 6f bd b7 71 b1 bd 6b f3 6c 3d
       -0.052767787 -0.058353283 -0.086642675 0.05784933
000070 91 ae 62 bb cf de 81 3d 5e 8d 41 3e 82 3e 50 be
       -0.0034588913 0.063413255 0.18901584 -0.20336345
000080 83 cc 95 3d 18 22 0f 3d db 23 cf bd 93 1a da bc
       0.07314398 0.034944624 -0.10114261 -0.026624
000090 00 0f 8f 3d 4a c1 ed 3c 99 81 d6 ba 34 ce 66 3d
       0.06985283 0.029022831 -0.0016365527 0.056348994
0000a0 36 86 18 3e cc 29 c4 bb ec bd d4 3d 85 37 c9 bd
       0.14894947 -0.005986428 0.10387787 -0.09825043
0000b0 07 57 91 3d 41 9f 16 3e 33 01 b5 bd f0 2f 85 3e
       0.07096677 0.14709188 -0.08838119 0.26013136
0000c0 fa 72 95 bd 3e b3 4c 3d 31 ed 1c 3e 67 96 b7 3c
       -0.07297321 0.049975626 0.15324856 0.022410585
0000d0 61 a1 08 bd b1 5f 3f 3e d4 3d 26 be 91 72 59 3d
       -0.033357028 0.18688847 -0.16234523 0.053087775
0000e0 cf 9b 6b 3c 75 ee fa 3c b7 2a d3 bd ee bc 83 bd
       0.014380409 0.030631283 -0.103108816 -0.0643252
0000f0 38 18 3d be f9 80 6f bc 10 70 7e 3c b0 4b 00 3e
       -0.1846627 -0.014618152 0.0155296475 0.12528872
000100 c5 b5 c7 3c 57 cf c7 3d ba f6 73 3e f4 b0 f4 3d
       0.024378667 0.09756344 0.23824587 0.11947814
000110 30 d7 ea bd 92 bd 8b 3d 64 7a b7 bd 23 0d 93 3d
       -0.11466825 0.06823267 -0.08958891 0.0718024
000120 55 97 8b bd ed a6 9b 3c aa f4 b2 bc 22 51 fa 3d
       -0.06815974 0.019000495 -0.02184518 0.12222506
000130 f0 3d 30 bc 29 5d d7 bd 3d 52 f3 bd 40 d4 68 be
       -0.010756955 -0.10515816 -0.1188092 -0.22737217
000140 60 12 31 bd 8f 74 2c bd 34 5e 08 be bc d4 d7 3d
       -0.043230414 -0.042103346 -0.13317186 0.10538623
000150 46 7a c4 bd dc f2 7d be 8a 10 9d 3e 90 da d4 3c
       -0.09593634 -0.24799675 0.3067668 0.025983125
000160 b6 9a ee bd 7d 7c 86 3d 4d 8f df 3e 6c 2e 06 bd
       -0.116506025 0.06566713 0.43664017 -0.032759115
000170 a1 b4 a6 3e 1c b3 30 3e df d8 66 be 47 ca b5 3c
       0.32559684 0.17255825 -0.22543667 0.02219118
000180 dc 04 a5 3d ec c5 83 3c 23 f7 ac bd 01 da 82 3b
       0.080575675 0.016085587 -0.08445575 0.0039932732
000190 91 41 2b 3e f2 10 19 3e 02 eb fa bd be 58 55 3d
       0.1672423 0.1494787 -0.122518554 0.052086584
0001a0 69 fc 95 3c 8d a8 b6 3d 26 bd d8 bc e0 f5 86 bd
       0.018308835 0.08918867 -0.02645738 -0.06589866
0001b0 c0 ac e0 3c b0 e0 47 3e f6 71 5f bc 64 f0 b1 3d
       0.027426124 0.19519305 -0.01363801 0.08688429
0001c0 e4 e2 09 3e c8 e9 5f 3d c4 9a c1 bd ab fc b5 bd
       0.13465458 0.05466631 -0.09453347 -0.08886083
0001d0 a9 22 6c bc 9c 91 fa 3c 0b 44 88 3c b3 db 20 3e
       -0.0144125605 0.03058701 0.016634008 0.15708809
0001e0 ab 15 36 3e e5 89 5a 3e 1e 30 c5 bd 9b f2 8f bd
       0.17781703 0.21341665 -0.09628318 -0.07028695
0001f0 57 01 0e 3e 1a ab 82 3d 4a 9b cf 3d 4d 3b 4e 3e
       0.13867699 0.06380291 0.10137041 0.20139809
000200 e3 ec 20 3d c4 8b 48 3e 13 42 5a 3e d6 51 9f bc
       0.039288413 0.19584566 0.21314268 -0.019448202
000210 46 56 12 be 20 2e 67 3e ad ea d6 3d be d1 6e 3e
       -0.14290723 0.22576189 0.104939796 0.23322198
000220 18 34 1b bd ea 84 58 3e 83 26 d0 bd fc 33 31 be
       -0.037891477 0.21144453 -0.101635955 -0.17304987
000230 02 37 df 3d cc 7a 3f bd 33 f6 50 3e 6d 2b 5a bd
       0.10899164 -0.046747968 0.20406418 -0.05326407
000240 2a 34 26 3d 26 e7 ea 3d 32 7e fc bd e9 ec bd 3c
       0.04057709 0.11469869 -0.12328757 0.023184257
000250 8d bc c6 3d 3e 4f c6 bd e6 cf ad 3d f8 4b 1f be
       0.09703932 -0.09683083 0.08486919 -0.15556324
000260 7d b9 35 bd 65 f6 b9 3d 99 95 ab bc 81 0d 90 be
       -0.04436635 0.09080199 -0.020945357 -0.28135303
000270 b5 08 ca 3d 0c b1 ba bd 07 67 4f be f9 ad 80 bd
       0.09864942 -0.091158 -0.20254146 -0.06283183
000280 28 35 db 3e 5f 67 73 3e 70 e3 73 bd 77 05 06 bf
       0.42813993 0.23769902 -0.059543073 -0.5235209
000290 b2 77 84 3c 94 a1 eb b9 51 44 fd 3e 2d 46 88 bd
       0.016170356 -0.00044943078 0.49466184 -0.0665401
0002a0 10 59 dd 3d ae 16 bd 3e 25 e5 8f 3e c5 dd 07 3e
       0.10808003 0.36931366 0.2810451 0.13268192
0002b0 8b 68 4f be 26 3f 40 3d 4a a5 8e 3e d6 d5 58 3e
       -0.20254724 0.046935223 0.2786048 0.21175322
0002c0 35 4c 15 3e ea 57 64 3d a1 d6 7e 3d 18 32 c4 3e
       0.14579852 0.055747904 0.062216405 0.38319468
0002d0 73 99 2e 3e 3e 88 58 be 3d e6 d9 be d1 f0 04 3b
       0.17050724 -0.21145722 -0.4255847 0.002028514
0002e0 8c f9 57 3e c0 aa 6a bd e1 9f 05 bf 12 60 aa be
       0.21091288 -0.057291746 -0.5219708 -0.3327642
0002f0 2f 47 da 3d 9d 70 87 bd d0 ee e0 3e 4b 70 cf bd
       0.106581084 -0.06613276 0.439322 -0.1012884
000300 78 34 88 3e 40 dc d3 3d 3b 33 6c be e2 d1 92 be
       0.2660253 0.10344744 -0.23066418 -0.28675753
000310 e6 6a 0a 3e 32 e5 0e 3e b6 29 21 3e 5b 8a 2f bc
       0.13517341 0.13954619 0.15738568 -0.010714139
000320 76 74 dc 3d e2 3e 74 bd 92 7e 46 3e 2c 07 fe bd
       0.10764401 -0.059630282 0.1938422 -0.12403712
000330 2d be 6f 3e be d7 56 be 89 c9 95 3d 7e 5e 04 3f
       0.2341239 -0.20980737 0.073138304 0.51706684
000340 2b bb 58 3e fe 87 80 3d ab ba cf 39 c0 7c a7 3c
       0.21165149 0.062759385 0.00039621195 0.020445228
000350 33 b7 39 3e ff 60 83 3d 7c 74 00 be 9b e1 1b 3c
       0.18136291 0.06414985 -0.12544435 0.009514238
000360 25 a9 c7 3d 39 30 69 3e f2 3c ae be 79 b0 52 be
       0.09749059 0.22772302 -0.34030873 -0.20575131
000370 ea 08 08 bd 0d 93 88 3d 33 81 a0 3e 7b 00 cb 3d
       -0.033211626 0.06668673 0.3134857 0.09912201
000380 e8 c1 06 3e 88 15 ed 3c bb 4a 4b bd de fe c3 bd
       0.13159907 0.028940931 -0.049631815 -0.095700964
000390 a8 01 e6 bc c3 e6 33 3d d5 61 52 3c 22 51 a2 3d
       -0.028076962 0.043921243 0.012840708 0.07925631
0003a0 f7 f4 00 be 34 1a 97 3d ad aa 19 be 3f 88 d7 bd
       -0.12593447 0.07378045 -0.15006514 -0.10524034
0003b0 ca f1 fd 3d 60 04 61 3d 2b 99 07 3e 0b 8f 27 be
       0.12399633 0.054935813 0.13242023 -0.1636316
0003c0 c0 d9 6a be 14 f6 3d 3c b4 31 0a 3d e2 b9 f1 bd
       -0.22934628 0.011594314 0.033738807 -0.118030325
0003d0 28 48 ef 3c 5b 6d f5 3c c4 f6 7a 3d 9d 22 2d be
       0.029209211 0.029959371 0.06127049 -0.16907735
0003e0 8c 6e 41 bd f9 96 a2 3d be ea ed 3c 4f 6a a6 3d
       -0.047224566 0.07938952 0.029042598 0.081257455
0003f0 6e cf 41 3c 5e d2 d3 bc e0 8c 44 be 6e 91 b7 3d
       0.01182924 -0.025857147 -0.19194365 0.089632854

fc4.bias f4 [32]
000000 c6 72 7d be af 6d ad 3d 32 51 0c bb 9f 1e 4a 3e
       -0.24750814 0.08468186 -0.00214107 0.19738244
000010 e6 ee ef bd cf 65 ab 3d b0 3e 39 be 9b 0f 87 bd
       -0.11715488 0.08369028 -0.1809032 -0.065947734
000020 c1 c2 1e bd 62 c2 69 be b1 5a 98 bd 42 c7 57 be
       -0.03875995 -0.22828057 -0.07439173 -0.21072105
000030 12 91 79 3d d7 b1 63 3d 8c d1 56 bd dc 42 11 be
       0.060929365 0.055589523 -0.052445933 -0.14185661
000040 c5 13 e9 3d ab 39 98 3d fd 0a b1 bb c4 eb e8 3c
       0.11380724 0.07432874 -0.0054029212 0.028432734
000050 4e 47 92 bd 98 da 0c bf 1e 76 b5 bd 6e cb d1 3d
       -0.071425065 -0.5502105 -0.0886042 0.10243879
000060 b2 de 58 bd 01 bd 0b be 9d e6 b4 3d 2b 48 6a 3c
       -0.052946754 -0.13646318 0.088330485 0.014299433
000070 e0 6b b7 3d c9 94 b5 be 39 49 5c 3c 40 d1 8c be
       0.089561224 -0.35465077 0.013445192 -0.27503395

fc5.weight f4 [1, 32]
000000 53 ba 21 bd 08 5a f8 3c 58 a5 0f bd 2e 3b cb 3c
       -0.039484333 0.030316368 -0.035069793 0.024808493
000010 60 3e 8e bd 4e 87 0f 3e 37 84 6e 3d 63 26 86 3c
       -0.06945491 0.14016458 0.05823156 0.016375726
000020 6c 9d 85 3d c3 f9 30 be 3d ce 8e bc 47 31 2a 3d
       0.065241665 -0.17282777 -0.017432326 0.0415509
000030 64 ac b2 bc ba 30 45 bd fa 45 05 3d 13 66 81 3c
       -0.021810718 -0.048142172 0.032537438 0.015795743
000040 1a 2b e7 3c dd ea 28 bd 40 f0 a7 3b d9 1f 9e bb
       0.028218795 -0.041239608 0.0051250756 -0.004825574
000050 36 3e 05 bd 46 d2 29 be 45 b0 3c 3d e6 47 85 3d
       -0.032530032 -0.16584119 0.04606654 0.06507854
000060 8d 06 b7 bb 14 3b 46 bc 20 3f 32 bd 8f c9 02 3c
       -0.0055854977 -0.012099046 -0.043517232 0.007982626
000070 6c 4a 84 3c 55 6b c5 bd d7 5f 06 3d d8 0c 85 bc
       0.016148768 -0.096396126 0.032806244 -0.016241476
